3 - RNA/sets/classificador-1.pth (torch, 4440 bytes, 6 tensors)

dense0.weight f4 [16, 5]
00000000: 062b 8b3e e439 823f d1e9 febd c3c3 0fc0
00000010: dcec 963f f56f 6dbf 120b 173e 7ca9 aa40
00000020: a50e dd3f 8e3d a43f 8b3c 09bf cc40 ad3f
00000030: f889 27bf c04c 25c0 08df c03f ed88 043e
00000040: 7c6c e3bd 0109 2140 9a48 3ac0 d158 6c3f
00000050: d1bd 26bf 4eb3 92bf 89ca a33f 7b7f 603e
00000060: 90a9 7d3f b51d c23d a91a d43f 4c00 4ac0
00000070: b619 8c3f 02f7 493f 06db 22bf b45c 81be
00000080: 7c2d 0040 d27d 323f 8f72 a63f be34 e9bf
00000090: c305 543f ac4e 74bf 0115 debd de13 9dbf
000000a0: e343 e2bd 0dfb 81bd 93df 8240 4312 4ac0
000000b0: 7b4c d03e 8526 99bf a404 cf3e 4d10 3f40
000000c0: 1413 a73f c11b ba3f 0360 21bd 4cb4 bfbd
000000d0: f57a 65bc 4a1c 43bc 3e34 99bd d650 03c0
000000e0: 16ce a43f 352f 89c0 42dd 28be 46b7 593f
000000f0: ffb3 06c0 cc51 b23f d1ac efbf c6b6 173d
00000100: 2d4a 7f3f 0e09 863f 565f d1bf dcd8 e43e
00000110: 79fc 8ebf 4b3c e4bf 1227 a8bd d19e e63f
00000120: c204 60c0 57a6 973f c3cf 633e 07ef d8be
00000130: e580 c33e 1b3d a040 fd52 6740 e654 013f
0.27181262 1.0173917 -0.12446941 -2.2463233 1.1791034 -0.9274896 0.14750317 5.333189
1.7270094 1.2831285 -0.53608006 1.35354 -0.654449 -2.5828094 1.5068064 0.12942858
-0.11104676 2.5161746 -2.9106812 0.92323023 -0.65133387 -1.146097 1.2796184 0.2192363
0.99086857 0.094783224 1.6570636 -3.1562681 1.0945346 0.7889253 -0.63615453 -0.2526604
2.0027761 0.69723237 1.300371 -1.8219221 0.8282129 -0.95432544 -0.1084385 -1.2271688
-0.110481046 -0.06346712 4.089792 -3.1573646 0.4068335 -1.196488 0.40433228 2.98537
1.3052697 1.453972 -0.039398205 -0.09360561 -0.014006366 -0.0119086 -0.074806675 -2.0518088
1.2875392 -4.2870126 -0.16490653 0.8504528 -2.104736 1.3931212 -1.8724614 0.03703954
0.9972256 1.0471513 -1.6357219 0.446967 -1.1170799 -1.78309 -0.08210577 1.8017217
-3.5002904 1.1847638 0.22247224 -0.42369863 0.38184276 5.007459 3.6144402 0.5052017

dense0.bias f4 [16]
00000000: 3323 91bf 5cb6 06bf d53e 2dbf 7b61 0fbe
00000010: 9c5a 40be cd24 b0bf 442e c4be e09c 8f3e
00000020: c937 8b3d 6444 43bf b905 abbd ab6e 58be
00000030: 0ebf 8abe 4a52 5f3b e94e b5bf 635f e0be
-1.1338867 -0.5262201 -0.67674 -0.1400203 -0.18784565 -1.3761231 -0.38316548 0.28049374
0.067977495 -0.7627623 -0.08350701 -0.21135966 -0.27098888 0.0034076148 -1.4164706 -0.43822774

dense1.weight f4 [16, 16]
00000000: cdde 993e cc5e e73f 15eb b33d eb62 b33d
00000010: 6651 853f a655 fc3d a62b e83e 0816 fd3c
00000020: 113a fc3e 6bf3 eb3f 4f17 1f3d 7275 c03d
00000030: 85dd 793f b9ed 6abd cd16 c1bf 166c 0640
00000040: 690e 113f 3a8f 26bf b805 7e3e d21f 503f
00000050: 70a7 a43d a4e6 773f 262c 33be ef14 bf3c
00000060: e6c9 5a3f be30 38be c93d 9f3c 1ad8 2a3e
00000070: 2de0 cfbc 7080 833f 9a37 833e e457 30bd
00000080: 0a6d 233f 3b7c 67be 42ee 2c3f ea77 853f
00000090: 0c6a 453f 9f67 ab3e 0bc1 203e 8fa8 483d
000000a0: f382 ad3f 3021 21bd 5d92 8cbd 9c72 da3d
000000b0: 4cb9 5f3e 972d 943e a297 833d e5f5 423e
000000c0: a002 09bf 5c91 96bd f5a0 bebe 0a73 a3bf
000000d0: 9d2b fbbd 9d17 c23e 09ef b4be 08b0 283e
000000e0: b3a5 72bf f266 c2bc 65dd 17bc 3a64 3dbe
000000f0: f597 873e fc06 60bc 6067 373f 4cf7 913f
00000100: dae3 6dbe 3425 edbe e9ad 70be 7f8f b6be
00000110: 6ede 873d 7cb8 3c3f 02e6 413e cc96 ed3d
00000120: de50 02bf 2265 083c f81c 573d c5b1 403d
00000130: ee6a ed3d d33b 28bd 7575 213f 0822 433f
00000140: 5dd8 923e 0535 913f f70c 1abf fdd3 793f
00000150: 3332 f7be cf9b 9cbf 0dd9 853e 2ed7 9c3e
00000160: 4379 6a3f 7090 153f b3e0 983d 97df bb3e
00000170: 5b80 0f3f 547c 97bf 8614 3bbf 2d2d acbf
00000180: 8e9b 9b3d 56f1 8abf 706f 383e 5c25 a8bd
00000190: 32c3 fcbe 61e3 0e3f c93b afbc ea99 90bd
000001a0: adbf 22be 7e9d 67be 59aa ec3b c36a 9c3c
000001b0: 39a8 a6bd 8cb3 7fbd 458e 5f3f 15bc 353f
000001c0: 70ec 81bf 961a b1bf 4d1a a2bf 38be 913d
000001d0: cb0c e83d 4f9d c4bf 3df3 7abf 94ca 4d3f
000001e0: 3209 86be fad6 b03e 204e 8abd 8a80 d23f
000001f0: 6ed5 d43e b1d1 05bf 2a26 b0bf 2cb1 923e
00000200: 5f79 29bd c8a7 01be c5b2 b0bd e1d1 66bf
00000210: ce1a 64be ef7e 043f dcec 94bd 61dd 5bbd
00000220: ae46 6bbf acf2 65be 2eda 9e3c c736 12be
00000230: ec75 153d f509 b4be fdd5 2a3f d992 233f
00000240: 6d54 74bf 81c3 aebf 1428 66bf fa88 263d
00000250: 5486 26bf 1473 d7bf 6c70 46bf 8b85 633f
00000260: d897 0bbb b2c7 443f fc7e afbd 81f9 e03f
00000270: 1108 c93f d0cd 99bf 149c b1bf 72cc ee3e
00000280: 0be4 113e 894d ed3f 24a9 783f 8c79 1f3d
00000290: 4c69 983c aea5 3fbe 668f 0b3f 09c0 673e
000002a0: 820a 3bbe 8345 533f de07 c73c 77a7 0f3f
000002b0: c247 623f b277 a93f 01f4 24be 9312 c13d
000002c0: a623 7ebf 753c 14bf 6ed1 13bf a000 d1be
000002d0: 3130 65be 698c 9ebf 8631 06bc e3a0 5e3f
000002e0: 46d0 8bbe 94c7 bf3f f17c 78bd 4d4f e63f
000002f0: cf01 e83f f766 a5bf 2201 a2bf 8d41 823f
00000300: 9640 acbe 0aa9 d1be a9f7 aebf 3f88 083f
00000310: 65b9 bd3f 2192 86bf 3447 033d 12e8 283e
00000320: 6d57 df3e 23f8 57bf 5e1e 743c ef1d 1dbf
00000330: df82 34bf a3c0 37bf 181b 47bf a473 d0be
00000340: df97 95bf 19ee 87bf 8ef0 9dbf 024f 68bf
00000350: 2505 6bbe 3d78 92bf a81e 5ebf 4468 683f
00000360: e51d 9dbe 2757 643d 9b27 08bd 3a65 903f
00000370: 2188 483f 944a 8abf 0ae1 78bf 706e c23f
00000380: 62cf 113f 8e4c 12be bce6 113f 9fb9 2e3f
00000390: 1d7e 873f 529c df3e c0c6 9a3e ff5e 11be
000003a0: a0c3 c43f a5c9 9cbe 41e5 1f3c 59d4 7ebd
000003b0: ad10 063d 3483 153f 36fd edbd 6044 4f3e
000003c0: cf5c 49be e5c8 c93f 49ed bf3e 6612 243d
000003d0: a09b 323f 1c84 94bd 5ccf f03e 6e39 8a3f
000003e0: c6d3 ca3e 3228 d53f f053 c93c 2240 8c3e
000003f0: f754 0d3f 2d75 03be 8df7 39bf 56a8 0040
0.30052796 1.8075805 0.08785073 0.087591015 1.0415466 0.12321024 0.453458 0.030894294
0.4926305 1.843366 0.03884059 0.09397401 0.97603637 -0.057355616 -1.5085083 2.100347
0.56662613 -0.65062296 0.24806869 0.81298554 0.08039749 0.96836305 -0.1749731 0.023325412
0.8546432 -0.17987344 0.019438641 0.16683999 -0.02537545 1.0273571 0.25628358 -0.04305257
0.63838255 -0.22605984 0.6755105 1.042722 0.7711494 0.33477494 0.1569864 0.048988875
1.3555588 -0.03933829 -0.06863854 0.10666391 0.21848029 0.28941032 0.06425406 0.19039114
-0.5351963 -0.07351944 -0.37232175 -1.2769482 -0.12264178 0.3790864 -0.3533862 0.164734
-0.94784087 -0.023730729 -0.009269093 -0.18495265 0.26483122 -0.01367354 0.7164211 1.1403594
-0.2323145 -0.46317446 -0.23503841 -0.35656354 0.06634222 0.73719 0.18935397 0.11601028
-0.50904644 0.008324893 0.05251786 0.047044534 0.11592661 -0.041072678 0.6306985 0.762238
0.28680697 1.1344305 -0.6017603 0.97589093 -0.48280486 -1.2235049 0.2614216 0.3063292
0.9159128 0.5842352 0.07464733 0.36694023 0.5605523 -1.1834817 -0.7307819 -1.3451287
0.07598029 -1.08549 0.1801126 -0.08210251 -0.49367672 0.558157 -0.021390812 -0.07060607
-0.15893431 -0.22618672 0.0072224555 0.019093877 -0.08137555 -0.06242709 0.8732646 0.70990115
-1.015028 -1.3836238 -1.2664276 0.071163595 0.11330565 -1.5360507 -0.980274 0.80387235
-0.2617889 0.34539014 -0.067531824 1.6445477 0.41569084 -0.5227309 -1.3761647 0.28650796
-0.041375514 -0.1266166 -0.086278476 -0.90164 -0.2227585 0.51756185 -0.0727174 -0.05367792
-0.91904724 -0.22455853 0.019391146 -0.14278708 0.036489412 -0.35163847 0.6673277 0.63895947
-0.95441324 -1.3653413 -0.89904904 0.040657975 -0.6504872 -1.6831994 -0.7751529 0.88875645
-0.0021300223 0.7686721 -0.08569142 1.7576143 1.5705587 -1.2015934 -1.3875756 0.46640354
0.14247148 1.8539287 0.9713309 0.038934276 0.018604897 -0.18715546 0.54515684 0.2263185
-0.18265727 0.8252794 0.024295744 0.56114906 0.88390744 1.3239653 -0.16108705 0.09427371
-0.99273145 -0.5790475 -0.5774144 -0.4082079 -0.22381665 -1.23866 -0.008190518 0.86964244
-0.27307338 1.4982781 -0.06066603 1.7992951 1.8125552 -1.2922047 -1.2656596 1.0176255
-0.33643025 -0.4094928 -1.366933 0.53332895 1.4822203 -1.0513345 0.032050326 0.16494778
0.43621388 -0.84363 0.014899818 -0.613738 -0.70512193 -0.71778315 -0.77775717 -0.40713227
-1.1686972 -1.0619537 -1.2339036 -0.90745556 -0.22951181 -1.1442944 -0.8676553 0.90784097
-0.3068687 0.055747177 -0.033240896 1.1280892 0.78332716 -1.080401 -0.9721838 1.5189953
0.56957066 -0.14287016 0.569927 0.68251985 1.0585362 0.4367395 0.3022976 -0.14196394
1.53722 -0.30622593 0.009759248 -0.06221423 0.032730747 0.58403325 -0.11620562 0.20240927
-0.1966431 1.5764433 0.37485722 0.04005661 0.69768715 -0.0725176 0.47033203 1.0798776
0.39614695 1.6652892 0.024576157 0.2739268 0.5520777 -0.12837668 -0.7264336 2.0102744

dense1.bias f4 [16]
00000000: a5f8 b2bf 4b97 16bf 7ace 5ebe 7c46 bb3c
00000010: 969d c5bd 0a7c 423e eb59 6abe b829 053f
00000020: aa2d c13d 4793 b53e 25d2 dbbe 95fa c53e
00000030: f640 573e 44f3 d23e 6f50 a3be 0536 9bbf
-1.398213 -0.58824605 -0.21758452 0.022860758 -0.09649198 0.1899263 -0.22885863 0.5201678
0.09432538 0.35463926 -0.42933765 0.3866774 0.21020874 0.41201222 -0.31897303 -1.212586

dense2.weight f4 [3, 16]
00000000: ac7c b33f 7fd9 d33e 4d1f c53e dff3 0c3d
00000010: 1cff 8cbe 3e26 ec3e e5f1 b9be 8d7f ce3f
00000020: d1c5 05bd cdb3 ec3f abc9 1d3f 6c3b d83f
00000030: 61e3 8ebd 5833 c43f e734 0a3e 206e a03f
00000040: a69b b9bf c2ea c23e b9ae e43e 52c0 1dbf
00000050: 1a8c 36be fff3 013e 8aa4 f63c dcb6 a4bf
00000060: 819c f4be 99b5 b2bf c67d 653d e0d2 c0bf
00000070: c5b3 f13e 648f f4bf 0c58 a03e 7562 93bf
00000080: 9e4c 05bd 854c 12c0 5e53 10c0 a31f 373f
00000090: 4538 e63e fbec 24c0 74b9 043e dd53 55bf
000000a0: 9d1f f83e 2e04 7abf 96e8 bdbf 40e3 e5be
000000b0: dff8 01c0 6579 a73d 2bed 12c0 31b0 a2bc
1.4022422 0.41376874 0.38500443 0.03441226 -0.27538383 0.46122926 -0.36317363 1.6132675
-0.032659356 1.8492371 0.61635846 1.6893134 -0.06976963 1.5328169 0.13496743 1.2533607
-1.4500625 0.3806973 0.44664553 -0.6162158 -0.17826882 0.12690733 0.030107755 -1.2868304
-0.47775653 -1.3961669 0.05602815 -1.5064354 0.47207466 -1.9106259 0.31317174 -1.1514422
-0.03254377 -2.2859204 -2.2550883 0.7153265 0.44964805 -2.5769641 0.1296137 -0.8333109
0.4846162 -0.9766263 -1.4836605 -0.4489994 -2.030815 0.08177451 -2.2957256 -0.019859405

dense2.bias f4 [3]
00000000: 990b 08bf a6ab 4c3e d30a c2bb
-0.53142697 0.19987354 -0.0059217005
