3 - RNA/sets/classificador-5.pth (torch, 3224 bytes, 6 tensors)

dense0.weight f4 [8, 5]
-6.1579755e-07 -2.1014125e-07 -1.6147755e-08 -3.129656e-07 2.0773468e-06 0.32702348 1.8349841 -2.9885025
3.558816 0.065384895 -0.001122013 -0.00029814756 1.4198e-40 -4.88371e-40 -1.4889959e-08 -0.6662686
0.4429204 0.0040417714 3.6410718 -2.0180285 -3.3848605 2.8342397 -7.1035724 2.1956577
-0.25282174 -0.9702454 1.3663396 3.5389442 -3.2582471 0.7984791 -0.083754525 -0.078528106
-1.76585e-40 2.656901e-39 -0.055678636 -0.6533543 0.030986566 4.1924596 5.0151563 0.35206053
00000000: 494d 25b5 30a3 61b4 4ab5 8ab2 aa05 a8b4
00000010: 8c68 0b36 9f6f a73e c2e0 ea3f a043 3fc0
00000020: a4c3 6340 84e8 853d 8210 93ba b050 9cb9
00000030: c88b 0100 6151 0580 bbce 7fb2 9490 2abf
00000040: 76c6 e23e d670 843b 5207 6940 6127 01c0
00000050: 8ea1 58c0 2f64 3540 7750 e3c0 a885 0c40
00000060: da71 81be 0162 78bf 37e4 ae3f 107e 6240
00000070: 1f87 50c0 2069 4c3f 7e87 abbd 58d3 a0bd
00000080: 3fec 0180 5cee 1c00 480f 64bd 3a42 27bf
00000090: 8ad7 fd3c a128 8640 297c a040 4741 b43e

dense0.bias f4 [8]
-3.8854105e-06 -1.8581064 -0.0005860902 0.63622344 0.32778627 -0.48376936 -0.16694984 0.11814115
00000000: 6c5f 82b6 6ed6 edbf d9a3 19ba 8adf 223f
00000010: 9ad3 a73e 9eb0 f7be e6f4 2abe fdf3 f13d

dense1.weight f4 [8, 8]
-3.9884607e-09 -1.013217 -2.46704e-40 0.87857217 3.444305 0.42297804 -3.5139167e-06 0.14180058
-8.9095864e-10 -0.720081 1.2534843e-19 -0.52735937 0.8953851 1.9905819 -0.009026527 2.4940944
-1.5637103e-09 2.7568154 7.273665e-06 0.23725931 2.8922202e-06 -1.1579157 -0.0002601022 -1.6429137
5.5510885e-09 1.175282 3.4972615e-07 -1.3100373 -1.3279369 0.45533592 2.472096e-05 -1.0107024
3.083146e-07 -0.59436464 -0.0003291226 -0.60158706 1.861831 1.4336972 -0.012666042 2.726033
-2.5012511e-08 -0.9529487 -7.0458506e-09 0.8671087 3.9021544 0.46387544 -0.006245851 -0.04636995
-3.1044007e-38 5.34586e-40 -6.96396e-40 -1.1340504e-07 3.185909e-24 -9.2525027e-10 3.363524e-10 -8.69233e-09
4.826559e-08 -1.184805 2.1541313e-12 0.375339 3.3077185 0.045326024 -0.0005088643 0.4052513
00000000: df0a 89b1 18b1 81bf b6af 0280 1bea 603f
00000010: 7e6f 5c40 9490 d83e a1d0 6bb6 2c34 113e
00000020: a4e7 74b0 3a57 38bf 3dfc 1320 0601 07bf
00000030: f537 653f 63cb fe3f 00e4 13bc 3e9f 1f40
00000040: 2aea d6b0 aa6f 3040 4e10 f436 1bf4 723e
00000050: f717 4236 9536 94bf 545e 88b9 ff4a d2bf
00000060: e4bb be31 a46f 963f ffc1 bb34 4daf a7bf
00000070: d6f9 a9bf ca21 e93e db5f cf37 b25e 81bf
00000080: 7086 a534 4828 18bf 168e acb9 9c01 1abf
00000090: 7a50 ee3f 6483 b73f 3b85 4fbc 5377 2e40
000000a0: 18db d6b2 72f4 73bf f517 f2b1 d6fa 5d3f
000000b0: e6bc 7940 1581 ed3e ffa9 ccbb 6bee 3dbd
000000c0: 0805 2981 35d2 0500 4595 0780 1489 f3b3
000000d0: 6e7f 7618 b354 7eb0 64e9 b82f 4655 15b2
000000e0: 944c 4f33 b1a7 97bf 6195 172c 6f2c c03e
000000f0: a9b1 5340 c8a7 393d 4e65 05ba 197d cf3e

dense1.bias f4 [8]
-0.15644339 0.3453816 -0.9100195 0.10110545 0.39025393 -0.22792248 -0.0010855073 0.076846
00000000: b232 20be dbd5 b03e 0af7 68bf 6010 cf3d
00000010: 5dcf c73e 8364 69be 9547 8eba 7061 9d3d

dense2.weight f4 [3, 8]
0.9323837 0.5917431 -1.4430974 -0.8314897 0.845798 0.9741177 2.5029494e-05 0.918046
-1.5321529 0.5584008 -0.75375193 0.9950831 0.65955234 -1.7638845 -9.72728e-05 -0.79655385
0.6719802 -3.0553234 2.1496623 -0.034707405 -2.8473475 0.7121063 6.2315443e-15 -0.36918566
00000000: b3b0 6e3f 7a7c 173f 6ab7 b8bf 82dc 54bf
00000010: 3886 583f c75f 793f 6ef6 d137 1005 6b3f
00000020: 961d c4bf 5bf3 0e3f e3f5 40bf c4bd 7e3f
00000030: 6cd8 283f f8c6 e1bf f0fe cbb8 f4ea 4bbf
00000040: e506 2c3f 6b8a 43c0 1194 0940 5a29 0ebd
00000050: f13a 36c0 994c 363f da83 e027 e705 bdbe

dense2.bias f4 [3]
0.17277904 0.1497218 -0.10988452
00000000: fdec 303e ac50 193e 230b e1bd
