3 - RNA/sets/classificador-2.pth (torch, 4440 bytes, 6 tensors)

dense0.weight f4 [16, 5]
00000000: c2e6 97bf 9f78 433f fc1b c4c0 8fc9 2ebe
00000010: e7b9 6fbe d3f3 a9bf b034 643f d6c7 973f
00000020: 4773 8fbf 6d2d 003f 5075 a5bf 2cf1 813f
00000030: 564f 9f3f d75f bcbf 8512 b73e 23ad 99bf
00000040: d25c 763f bfd8 0940 f881 8fbf ee80 263e
00000050: 2129 953e f211 5f3f 0db1 0440 2e6b 4e40
00000060: 4d23 fbbf 85a6 0080 1b0e 0480 c9cb 0180
00000070: 8da7 0580 5b0b 7eb2 20ca 2da2 89a7 6b9d
00000080: a6cd 0000 18c6 0380 ba6f 0101 7ee6 043f
00000090: ac36 0fc0 1a16 82c0 ffc8 26be 7178 57bf
000000a0: 7c72 96bd 3014 053e 6235 9c40 481a 7d3c
000000b0: c442 843f 7123 92bf 61cd 0c3f 48b3 bec0
000000c0: 4804 a4be a60c 73be 8ef1 b43e 7a3a 493f
000000d0: fd96 f03f 1044 5840 b718 fbbf 9d14 28bf
000000e0: 76b6 29bf 622c 0640 6f4e babf e058 47bf
000000f0: 4fd5 4abf 75a3 c03f 316c 46bf 27e5 d0bf
00000100: 3673 853e 4264 0b3f 1777 5abf 554a 7740
00000110: c285 233f 4d94 46bf e589 bca4 d47e 0200
00000120: dbc3 0580 60a6 0380 5147 2aa0 e64d a2be
00000130: 18a9 f03f b1c2 78bf e1bc 013f 8dcf b63e
-1.1867297 0.7635593 -6.128416 -0.17069076 -0.2341076 -1.3277534 0.89142895 1.185786
-1.1207055 0.50069314 -1.2926426 1.0151725 1.2446086 -1.4716748 0.35756317 -1.2005962
0.9623538 2.1538541 -1.1211538 0.1626012 0.2913294 0.8713676 2.0733063 3.2252917
-1.9620148 -5.9736e-41 -3.72402e-40 -1.6494e-40 -5.19283e-40 -1.4787328e-08 -2.3552876e-18 -3.1188605e-21
7.3773e-41 -3.46569e-40 2.3773718e-38 0.51914203 -2.237712 -4.065198 -0.16287611 -0.84168154
-0.07346055 0.12995982 4.8815165 0.0154481605 1.0332875 -1.1417066 0.55000883 -5.959385
-0.32034516 -0.23735294 0.35340542 0.78604853 1.8796078 3.3791542 -1.9616917 -0.65656453
-0.6629404 2.096459 -1.4555186 -0.7786999 -0.79231733 1.5049883 -0.77508837 -1.6319932
0.2606446 0.54449856 -0.85337967 3.8639119 0.63875973 -0.7757004 -8.1765606e-17 2.29168e-40
-5.29437e-40 -3.3519e-40 -1.4423157e-19 -0.31700057 1.8801603 -0.97172076 0.5067883 0.35705224

dense0.bias f4 [16]
00000000: cc08 b43e c3af 8abe f5a9 4ebe ba81 5dbe
00000010: e2ac 4dbf 4d5d 40b4 963d 58a6 45e1 173f
00000020: b700 85bf c9d6 ba3e eca4 5ebf 1ccf 373f
00000030: 9a3f 07bf e461 393d 95db a2aa ad4a adbf
0.3516296 -0.2708722 -0.20182021 -0.21631518 -0.80341923 -1.7915336e-07 -7.502352e-16 0.5932811
-1.0390843 0.36491993 -0.869704 0.718004 -0.52831423 0.04525937 -2.8929346e-13 -1.3538414

dense1.weight f4 [16, 16]
00000000: 3cfc 553f ea37 c3bd 99a1 4e3e ee07 c9bc
00000010: fa3f c7bf ccf2 022f f17b f83a 082b ffbd
00000020: 0372 07c0 b359 833f 0a38 d1bf 82e2 7b3f
00000030: 1749 0f3f 378a e8bd ef75 333a 75b0 213f
00000040: e788 2c3f 2e5f a93f 6042 b53f aba7 b43f
00000050: 3808 ecbc 95f5 0180 aef6 4520 8f6e 29c0
00000060: 1185 9c3f 5af9 303f 0c29 85bd c562 a4be
00000070: 37dc b2bf 3a6f 033f d2db 0000 336c 6ebf
00000080: 8ff1 153f 74e6 8d3f 6ced 5c3f 92df 113e
00000090: 645d 243e 7a30 0580 45ab 9ab5 6b14 3dc0
000000a0: 6587 853f 4685 803f 359f bcbd 9410 e6be
000000b0: aa03 f8bf 590e b03e 8189 0700 5082 adbf
000000c0: 339a 1440 91b7 833e 608b ff3e 85a1 c23e
000000d0: c165 b6bf a1fe 222e cb2c 7faf 4bec 983c
000000e0: cee4 7f3e d144 2740 981b 9ebf a117 ac3e
000000f0: 5f17 a6bf 9c02 113e 38e6 bc2e 9b98 cfbf
00000100: 584b 0580 7a47 acbf 94e3 8cbf 98ed 86bf
00000110: 7448 333e b06c 82ae 0244 0700 74c0 88be
00000120: 754d 1cbf 2179 0580 2f47 b53e a130 9ebe
00000130: c2ed d1be 51ce c13f be00 d2b6 ba5a 41bf
00000140: 0358 fa3f c518 373f 20c5 863f a2b8 083e
00000150: 8bca efbf 403b 0100 f04d 0300 e1dc a13f
00000160: ed0e 383f 3bf0 0940 14d3 e3bf faba 043e
00000170: 2638 7c3e 7975 24be 3453 0180 5fb5 92bf
00000180: 6045 a6a1 6ada 4b2c b059 22ac 26dc 15ad
00000190: 5090 8eb6 c8a8 492f 0e7a 44af 042d b32d
000001a0: 0abf a4ad 04e3 7129 0d9d 542f 770c 4eab
000001b0: c939 80ae 8264 4d2d 9549 0180 ac7a 11ae
000001c0: 9389 9b3f de68 a3bc 7978 a1bd 33d1 97be
000001d0: e761 c6bf e26c 0400 754d 968a f235 02be
000001e0: 464f 04c0 8a9d 9e3f 3b49 c7bf 20b2 9d3f
000001f0: 8b07 c53e 5efb 15be 96a0 0100 7ed3 d23e
00000200: ac4e 0300 2997 0200 67f4 0180 3c03 0600
00000210: b6d4 4a87 8007 33ae 0568 df39 093d 0180
00000220: e43c 0080 7c4a 0580 952c 7892 ffbb 0080
00000230: f2bc 0400 4fa1 0180 3ed4 6b37 f732 0080
00000240: 6c1f 1840 bcf3 213e e3fb 2b3e 2047 db3e
00000250: 56f2 b6bf 8f87 2d9a 3f13 0b00 7e8e bebf
00000260: efa6 c9bb 63a1 0440 ad68 a1bf 7c18 683b
00000270: 419f 8ebf 681e b13e 9b7d 0180 6c15 aebf
00000280: faea 7e28 d43f 292b 43e7 44ac 82ed 762c
00000290: 0b21 d139 d0fc 052a 72d4 88b0 7122 99bb
000002a0: 7b6d 252c 2817 0927 c5ea 48bb 6125 a22a
000002b0: 5478 852c bf1a 09b9 f60a f127 352e 0eb4
000002c0: 9e96 0ebf ccaa 91bf ba02 89bf 802f a0bf
000002d0: 0be4 a73e 588a 0280 e9d1 810d bc47 abbe
000002e0: 8386 323f ff4b 3bbf bf78 d03e 5ceb 70bf
000002f0: 5a5f 7cbe 02f6 50c0 a17c 0180 865a 5abe
00000300: a7a2 dd3f 8733 84bd 8cd0 063e 36dc 7f3f
00000310: c682 c8bf 669a 9594 79eb 2383 7be6 82bc
00000320: c1a0 0bbe 3a3c d43f 6ece d2bf 5466 5c3e
00000330: a6e0 563e 4a8a c2bd 3f86 0180 387b dcbf
00000340: 88fe 953f 4b92 133d ef39 bd3d a952 82bd
00000350: ed28 bfbf 8a1a 06a1 fa0d 9294 b478 d9bd
00000360: 1579 e0bf 626c 9d3f 5997 bcbf b6e6 eb3f
00000370: 5504 0f3f 38fe 92bd ecd7 0280 b07c b73e
00000380: 0ef5 f904 afce 4bab 6b02 8707 1658 0488
00000390: 99c9 86a9 55f3 b427 389a 58b7 8b8b 85af
000003a0: ac62 298e 88e3 4c86 54a3 5a12 7c5b 8428
000003b0: 7d5f 030a fde8 3db0 3c60 d531 942e ed11
000003c0: 40e4 00b0 9a07 f1bd 4419 363a 316f 00be
000003d0: b04e 80bd 34ae 36ba 302b 39aa f295 87bc
000003e0: 7efb ae3d fc75 73ae 46be 9bbd cc08 3d35
000003f0: 7954 4abc fa72 89bc c8c6 ab39 a365 4dbb
0.83588004 -0.09532149 0.20178832 -0.024539914 -1.5566399 1.190969e-10 0.0018957836 -0.124593794
-2.1163337 1.0261749 -1.6345227 0.983925 0.559709 -0.113544874 0.00068458816 0.6315988
0.67396396 1.3232172 1.4160881 1.4113668 -0.028812513 -1.79934e-40 1.6768169e-19 -2.647373
1.2228109 0.6913048 -0.0650197 -0.32106605 -1.3973454 0.51341593 7.8857e-41 -0.9313385
0.58571714 1.1085954 0.8629978 0.14245442 0.1605125 -4.76568e-40 -1.152374e-06 -2.9543712
1.0431944 1.0040672 -0.09210054 -0.44934523 -1.9376118 0.34385946 6.92176e-40 -1.3555393
2.3219116 0.25725988 0.49911022 0.38013855 -1.4249803 3.706069e-11 -2.3208029e-10 0.01866736
0.24989626 2.6135752 -1.2352171 0.33611777 -1.2975882 0.14161152 8.590145e-11 -1.6218446
-4.86206e-40 -1.3459313 -1.1006951 -1.0541258 0.17508107 -5.931022e-11 6.67245e-40 -0.2670933
-0.6105569 -5.0263e-40 0.3540587 -0.30896476 -0.41001707 1.5141088 -6.258574e-06 -0.7552906
1.9558109 0.7152217 1.0528908 0.13351682 -1.8733686 1.1309e-40 3.03465e-40 1.2645532
0.71897775 2.1552875 -1.7798791 0.12961951 0.24630794 -0.16060437 -1.21683e-40 -1.14616
-1.1266961e-18 2.896928e-12 -2.3071371e-12 -8.518552e-12 -4.24873e-06 1.8340807e-10 -1.7869459e-10 2.0369935e-11
-1.872948e-11 5.3709654e-14 1.9337083e-10 -7.32032e-13 -5.831031e-11 1.1675218e-11 -1.18232e-40 -3.3078137e-11
1.2151359 -0.019947466 -0.078843065 -0.29651794 -1.5498627 4.06402e-40 -1.447361e-32 -0.12715891
-2.0673385 1.2391827 -1.5569223 1.2319984 0.38482317 -0.1464667 1.49443e-40 0.4117698
3.03729e-40 2.37897e-40 -1.7951e-40 5.52173e-40 -1.5259301e-34 -4.070655e-11 0.00042611375 -1.13731e-40
-2.1843e-41 -4.85897e-40 -7.8309953e-28 -6.744e-41 4.35123e-40 -1.49702e-40 1.4056508e-05 -1.8283e-41
2.3769178 0.15815634 0.16795306 0.42827702 -1.4292705 -3.5885065e-23 1.017095e-39 -1.4887235
-0.0061539332 2.0723503 -1.261007 0.0035414984 -1.114235 0.3459351 -1.36894e-40 -1.3600287
1.4150785e-14 6.012944e-13 -2.7981651e-12 3.5090546e-12 0.00039888205 1.1900485e-13 -9.955683e-10 -0.004673295
2.3508684e-12 1.9025122e-15 -0.0030657512 2.8802918e-13 3.7934465e-12 -0.00013075302 6.690282e-15 -1.324159e-07
-0.55698574 -1.1380248 -1.0703957 -1.2514496 0.3279117 -2.333e-40 8.000773e-31 -0.33453166
0.697365 -0.73162836 0.40717122 -0.9410913 -0.24645749 -3.2650151 -1.36544e-40 -0.21323594
1.7315263 -0.064551406 0.13165492 0.9994539 -1.5664909 -1.5106055e-26 -4.8171704e-37 -0.015979042
-0.13635541 1.658088 -1.6469247 0.2152341 0.20984134 -0.09499033 -1.39994e-40 -1.7225103
1.1718302 0.036028188 0.092395656 -0.063634224 -1.4934365 -4.543609e-19 -1.4747745e-26 -0.106187254
-1.7536951 1.2298701 -1.4733688 1.8429782 0.55865985 -0.07177395 -2.61129e-40 0.35837317
5.8764666e-36 -7.240692e-13 2.0313964e-34 -3.982585e-34 -5.985767e-14 5.0223857e-15 -1.291051e-05 -2.429171e-10
-2.0878367e-30 -3.85353e-35 6.898999e-28 1.4694619e-14 6.32538e-33 -6.9088896e-10 6.2100565e-09 3.7420713e-28
-4.689049e-10 -0.11769028 0.0006946514 -0.12542416 -0.062650084 -0.00069687073 -1.6446284e-13 -0.016550992
0.08544062 -5.5356594e-11 -0.07604651 7.042079e-07 -0.012349241 -0.016778458 0.00032763765 -0.0031341098

dense1.bias f4 [16]
00000000: 9b3e 7c3e 9848 4a3e 8322 893e 978c 7dbe
00000010: 4bd1 56bf 66d9 a3be 9f91 38ba e22f 4b3e
00000020: 7b99 02a7 b2e3 413e d483 9bbd fb6c 533e
00000030: 63c8 2c3e 4181 433e 3393 20bb 2277 2fbe
0.24633257 0.19754255 0.26784143 -0.24760662 -0.83913106 -0.320018 -0.0007040742 0.19842485
-1.8124326e-15 0.18934515 -0.075935036 0.20647041 0.16873316 0.19092275 -0.00245018 -0.1713529

dense2.weight f4 [3, 16]
00000000: ebac 593f df34 853f 5aa2 9a3f e5c0 4e40
00000010: e982 babf 57d6 f33f 1ee8 90af 435b 763f
00000020: 1866 0480 8d1d 2040 ac33 b3bc 1d30 28c0
00000030: 491b d03f 8e81 793f c9df 8f36 cbc3 2c3d
00000040: 8772 eebf 554d 7f3f 8c6d 653f 9f1a f1bf
00000050: a7b5 1440 fbfb ee3e 7a2a 6136 afb7 1ac0
00000060: 0372 e8a2 2c53 83bf 5b6a 973d b658 413f
00000070: 2cd9 15c0 b2c2 19c0 7976 c837 159d 8bbc
00000080: ae06 463f b96e 39c0 b2a2 2cc0 4844 93bf
00000090: f4c5 73bf 8ed0 5ac0 1c71 162f 84e5 903f
000000a0: e072 c99e 2b3c 01c0 a98d 0bbd 27e9 923f
000000b0: c784 e33e d956 973f f8d2 59b5 2e3f b6bb
0.85029477 1.040676 1.2080796 3.2305233 -1.4571201 1.9049786 -2.6358377e-10 0.96233004
-4.03966e-40 2.5018036 -0.021875225 -2.6279366 1.6258327 0.9746331 4.287784e-06 0.04217891
-1.8628701 0.99727374 0.8962028 -1.8836249 2.3235872 0.4667662 3.3552337e-06 -2.4174612
-6.300444e-18 -1.0259757 0.073933326 0.7552599 -2.3413801 -2.4025083 2.3897026e-05 -0.017042676
0.7735394 -2.897383 -2.6974301 -1.1505213 -0.9522393 -3.4189792 1.3682605e-10 1.1320043
-2.1329214e-20 -2.0192974 -0.034070645 1.1477402 0.4443724 1.1823379 -8.11458e-07 -0.005561731

dense2.bias f4 [3]
00000000: c698 aebf 502f 683f 90c6 1e3d
-1.3640373 0.90697193 0.038763583
