3 - RNA/sets/classificador-7.pth (torch, 3480 bytes, 6 tensors)

dense0.weight f4 [10, 5]
-1.4309249 0.81140006 0.27792224 -3.7225585 0.7052795 -0.114937365 0.1513843 5.1635537
-3.05418 0.61586994 -1.5327369 1.0041443 -7.2711153 -0.2615451 -0.2897424 -1.4987975
1.0504793 -7.179425 -0.2789072 -0.28542086 -0.7988685 -0.48483288 1.4804949 -0.07375992
1.0339522 0.13284208 1.3210938 -0.106257185 3.0118146 -1.7311478 0.0039422344 1.6326019
-0.72170097 2.088704 -2.0006852 -1.5701461 0.76117724 2.2284744 -2.7571726 -0.09189264
-0.8619794 -0.48018783 0.6352857 -0.5998006 1.212857 -0.13318442 2.7251627 -1.7661241
-1.0737832 0.25754565
00000000: 8c28 b7bf eab7 4f3f d34b 8e3e 663e 6ec0
00000010: 338d 343f 4864 ebbd 7c04 1b3e d53b a540
00000020: af77 43c0 a7a9 1d3f b930 c4bf cd87 803f
00000030: faac e8c0 3de9 85be 1e59 94be 99d8 bfbf
00000040: 1b76 863f d9bd e5c0 edcc 8ebe af22 92be
00000050: a582 4cbf 043c f8be db80 bd3f 710f 97bd
00000060: 8c58 843f c107 083e 9a19 a93f 5e9d d9bd
00000070: 92c1 4040 4096 ddbf dc2d 813b 19f9 d03f
00000080: 65c1 38bf 54ad 0540 3a0b 00c0 8cfa c8bf
00000090: 83dc 423f 539f 0e40 8475 30c0 3532 bcbd
000000a0: afaa 5cbf 2edb f5be 15a2 223f 888c 19bf
000000b0: e63e 9b3f 7f61 08be 1169 2e40 5b10 e2bf
000000c0: ba71 89bf 06dd 833e

dense0.bias f4 [10]
-0.19454841 -0.17366959 0.39238483 0.38713983 -0.50776994 -0.901168 -1.0364602 0.078953564
-0.46929702 -1.8710335
00000000: b337 47be 71d6 31be aae6 c83e 3137 c63e
00000010: 36fd 01bf f2b2 66bf baaa 84bf 68b2 a13d
00000020: b347 f0be 077e efbf

dense1.weight f4 [10, 10]
-0.018418351 1.4656175 3.064936 2.5354593 -0.124400295 -0.06619817 0.38503143 2.0658524
-0.2286196 -0.1929657 -1.434334 -2.7279012 -0.7517106 -0.4775393 -0.7670368 0.11963574
-0.118654035 -1.5196083 -0.5340811 -0.21674553 2.2723467 0.29214796 1.9270889 2.1961365
1.3973707 -0.1066233 1.1673944 0.07935491 1.1574603 -0.27525878 -0.099899955 -0.15192704
2.7290683 2.9193206 -0.17126445 -0.9884628 -0.97040343 1.0241259 -0.37641963 -1.5879651
-1.0466902 -2.806299 -0.093980595 0.38082817 -0.5366143 0.7286894 0.5666414 -0.6648244
-0.40178394 0.5201561 1.3261946 0.21022922 -0.07325572 0.20123766 0.2894101 -0.24221234
-0.5142957 -0.1372494 1.3719923 2.5577385 -0.40398484 0.034831032 1.2619509 1.6083629
0.14367004 -2.1498473 -1.4957966 0.9509584 -0.063892156 0.9180553 1.2077721 -0.17597488
1.3396598 1.5790651 1.0928664 -0.8535675 -1.0087063 0.19713983 1.3790962 -1.2779285
1.735192 -0.29905218 0.9778018 1.1801132 1.4846014 -0.39690125 -0.8884744 -0.16204444
1.0521666 -0.7987192 0.16733861 -0.07339893 2.7882836 2.8655508 -0.1934727 -1.0748407
-1.1724914 0.91865677 -0.1587399 -1.5420594
00000000: 15e2 96bc 5b99 bb3f e927 4440 f744 2240
00000010: 95c5 febd e892 87bd d722 c53e ed36 0440
00000020: 421b 6abe cd98 45be 4298 b7bf ef95 2ec0
00000030: 1b70 40bf 0880 f4be 865c 44bf 9503 f53d
00000040: e300 f3bd 8682 c2bf 8ab9 08bf 8af2 5dbe
00000050: 216e 1140 6b94 953e d9aa f63f 808d 0c40
00000060: 0bdd b23f 515d dabd 2e6d 953f d484 a23d
00000070: a927 943f b8ee 8cbe 5998 ccbd c392 1bbe
00000080: 0ea9 2e40 26d6 3a40 f35f 2fbe e60b 7dbf
00000090: 5c6c 78bf 8f16 833f 13ba c0be 7142 cbbf
000000a0: f2f9 85bf 679a 33c0 e678 c0bd e9fb c23e
000000b0: 8e5f 09bf 638b 3a3f 690f 113f ef31 2abf
000000c0: a0b6 cdbe f328 053f bfc0 a93f 5446 573e
000000d0: 1807 96bd 3f11 4e3e 902d 943e 8306 78be
000000e0: e2a8 03bf 1b8b 0cbe 729d af3f fdb1 2340
000000f0: 1ad7 cebe fcaa 0e3d 9b87 a13f d6de cd3f
00000100: 3d1e 133e 1997 09c0 4376 bfbf 0272 733f
00000110: e4d9 82bd ac05 6b3f 4798 9a3f c232 34be
00000120: f979 ab3f ce1e ca3f 0ce3 8b3f 6683 5abf
00000130: 4a1d 81bf 06df 493e 3986 b03f 2993 a3bf
00000140: c51a de3f 5e1d 99be 3851 7a3f f30d 973f
00000150: 6b07 be3f a436 cbbe 0f73 63bf faee 25be
00000160: 65ad 863f dd78 4cbf d05a 2b3e 2e52 96bd
00000170: 3d73 3240 2f65 3740 b51d 46be 6194 89bf
00000180: 3314 96bf 172d 6b3f b68c 22be 3462 c5bf

dense1.bias f4 [10]
-0.9329954 0.39736676 -0.30321562 0.30663586 -0.41742685 -1.0865906 0.22387077 0.19448495
0.22140591 0.25405058
00000000: c9d8 6ebf a873 cb3e 143f 9bbe 60ff 9c3e
00000010: f9b8 d5be 6715 8bbf 613e 653e 1027 473e
00000020: 3bb8 623e eb12 823e

dense2.weight f4 [4, 10]
1.1518241 -1.2959784 1.2477937 1.698628 -0.8848468 0.2374613 0.54697126 1.0008596
1.1371591 1.7138908 1.7123097 0.4887787 -2.1206174 -1.9848696 -0.7873022 -1.637212
-1.1617548 -2.2666204 -2.184222 -2.0152755 -1.6871114 1.3672353 1.0380579 -0.6601967
1.4115247 0.7887424 -0.9100806 0.9189867 1.0691056 -0.44253537 -2.4183764 -0.67805743
-0.47740275 0.8259985 0.4922455 0.53227973 1.144166 -0.4488331 -0.9887605 0.66668564
00000000: f96e 933f 9fe2 a5bf b4b7 9f3f a46c d93f
00000010: 5285 62bf 0e29 733e 4f06 0c3f 2b1c 803f
00000020: 6e8e 913f c660 db3f f72c db3f 3441 fa3e
00000030: 32b8 07c0 3510 febf a38c 49bf 2a90 d1bf
00000040: 62b4 94bf 4f10 11c0 4bca 0bc0 46fa 00c0
00000050: 44f3 d7bf 9101 af3f 15df 843f a702 29bf
00000060: d7ac b43f 06eb 493f 0bfb 68bf b642 6b3f
00000070: 74d8 883f ff93 e2be aec6 1ac0 2c95 2dbf
00000080: 226e f4be a374 533f 9a07 fc3e 7c43 083f
00000090: 0874 923f 74cd e5be 681f 7dbf e9ab 2a3f

dense2.bias f4 [4]
-1.0733688 1.6573805 -1.5401487 0.3191175
00000000: 2664 89bf 0b25 d43f 9823 c5bf 5e63 a33e
