3 - RNA/sets/classificador-4.pth (torch, 2840 bytes, 5 tensors)

dense0.weight f4 [3, 5]
0.75729483 0.23057199 0.20697294 1.1783117 -0.09608124 -4.4310126 -0.4409383 0.12328391
-4.2653947 0.4513565 -4.3069267 -0.41124693 0.33302632 -4.2482085 0.3689341
00000000: 13de 413f 101b 6c3e b7f0 533e ebd2 963f
00000010: 3ec6 c4bd dbca 8dc0 aac2 e1be 467c fc3d
00000020: 1d7e 88c0 3318 e73e 58d2 89c0 f58e d2be
00000030: 6d82 aa3e 53f1 87c0 eee4 bc3e

dense0.bias f4 [3]
-0.6375708 2.8341913 2.795479
00000000: d737 23bf 6463 3540 21e9 3240

dense1.weight f4 [3, 3]
0.25085607 -3.594339 -3.5616302 0.17073569 -3.689 -3.5934591 0.09698304 -3.7866368
-3.5849974
00000000: 3570 803e a609 66c0 c0f1 63c0 56d5 2e3e
00000010: 9318 6cc0 3cfb 65c0 0b9f c63d 4258 72c0
00000020: 9970 65c0

dense1.bias f4 [3]
0.03183994 0.081853256 0.060712982
00000000: 996a 023d aea2 a73d 2dae 783d

dense2.weight f4 [1, 3]
3.837051 3.8244946 3.737002
00000000: 3e92 7540 85c4 7440 0a2b 6f40
