3 - RNA/sets/classificador-3.pth (torch, 5208 bytes, 6 tensors)

dense0.weight f4 [20, 5]
00000000: d52f e7bf b315 e23f fce1 d63e 5702 1dc0
00000010: 401f 40bd 3d88 33ba b6b7 22ba b04c ed02
00000020: 5488 c202 2372 520d 3e98 c73e 5fe2 7e3f
00000030: 0730 2240 747a 0840 a03e 25c0 4446 769a
00000040: 9630 481a a6b7 9c98 d4cf 2397 7602 2798
00000050: 78e3 24bf de56 873f fdba d03f 2e4f 5ebf
00000060: 0ba0 ee3f e550 b396 258d 7896 5a08 c315
00000070: d444 6694 409c 1615 2899 d4bf 084f 5cbe
00000080: e27b 9c3f 2bd2 573d f956 0740 1946 293f
00000090: b9b2 59bf ed22 a340 b747 b8bf a402 abbe
000000a0: 7a32 d2be 056e 0040 4737 dbbf 75ea 0bc0
000000b0: d834 5a3e df92 f43e 2766 4c3f 1a4f 9ec0
000000c0: 53f1 a23f 7e77 9a3e 7f65 32b0 e9d0 0200
000000d0: 1f0e 0400 e72a 0180 2d6c 24b3 d182 1abe
000000e0: a4b6 92bd 5a5c b6ab d24d 0180 198f 09bd
000000f0: 5ff9 d83e 862e 9d3f 5073 90c0 5552 1240
00000100: e25f cebf d81a 94ab 9c99 68a7 4f19 0180
00000110: 329c 0380 8907 85ae 2e25 19c0 9caa d43f
00000120: 7a75 5e3f 032b 523e 27ce 083f 3439 c4bf
00000130: 4e0f c43f 8003 a8c0 d48c fe3f aa4a 333e
00000140: b04c a7b2 fe4f 0db3 5033 0200 7fcf 0700
00000150: e7a5 0600 11bf 853d 0baa c63f 3b54 4fc0
00000160: b223 0f40 89b3 213d 68df 04c0 450c b53f
00000170: 19fd 5c3f e52b 0540 105f 333f 9f3a c33e
00000180: 010f 263f 14f1 033f 9ec2 d0c0 4573 8f3e
-1.8061472 1.7662872 0.41969287 -2.4532678 -0.046904802 -0.0006848609 -0.00062071846 3.4868037e-37
2.8583987e-37 6.4848633e-31 0.3898334 0.99564165 2.5341814 2.132474 -2.5819473 -5.0928368e-23
4.1398278e-23 -4.0510492e-24 -5.2930457e-25 -2.1585487e-24 -0.6440959 1.0573385 1.6307064 -0.8683957
1.8642591 -2.8970061e-25 -2.0077818e-25 7.877305e-26 -1.16256065e-26 3.0415518e-26 -1.660924 -0.21514523
1.2225306 0.052690666 2.1146834 0.66122586 -0.85038334 5.0980134 -1.4396886 -0.33400452
-0.41054136 2.006715 -1.7126244 -2.1861851 0.21309221 0.47768304 0.7984337 -4.947156
1.2729896 0.3016929 -6.490026e-10 2.58614e-40 3.72408e-40 -1.07226e-40 -3.828261e-08 -0.15088965
-0.07163742 -1.295751e-12 -1.19752e-40 -0.033583734 0.42377755 1.2279823 -4.514076 2.2862751
-1.6123011 -1.0523483e-12 -3.227974e-15 -1.00915e-40 -3.31539e-40 -6.049478e-11 -2.3928943 1.6614566
0.86898005 0.2052422 0.53439564 -1.5329957 1.5317171 -5.2504272 1.9886727 0.17508951
-1.9476232e-08 -3.2901873e-08 2.02078e-40 7.17284e-40 6.10528e-40 0.06530584 1.5520643 -3.239516
2.2365537 0.03947786 -2.0761356 1.4144369 0.86323696 2.080804 0.7006693 0.38130662
0.64866644 0.5153973 -6.523757 0.2801763

dense0.bias f4 [20]
00000000: 2629 883e 6272 3fba ba41 84bf 62e6 779a
00000010: a16b 09bf 0349 aa96 bbc9 4abf be04 dbbe
00000020: 3973 a4bf 8b4f 57bf 7657 23b0 0053 25be
00000030: 078a a1bf 71a7 efb2 d798 863e 118f 503e
00000040: 2aee a4b2 b313 aebf bc22 a3be 4aa1 1ebf
0.26593894 -0.0007303116 -1.0332558 -5.1264505e-23 -0.53679854 -2.7511058e-25 -0.79214066 -0.42777056
-1.2847663 -0.8410575 -5.9423344e-10 -0.16144943 -1.2620248 -2.7899405e-08 0.26288483 0.20367076
-1.9200417e-08 -1.3599762 -0.31862438 -0.6196486

dense1.weight f4 [20, 20]
00000000: 413c 303f 55bc 0600 bb14 d5be 0df0 f613
00000010: 4513 83be e675 9997 1ac9 823f c022 193f
00000020: 0a6a 4ebf bf72 9abf 9a4b 0200 de69 0500
00000030: 7bf0 f0be 0c55 c404 20ef 4d3e d8d3 3740
00000040: 40bd 0080 4c72 87bf 2c12 4d3f b4fc 6cbf
00000050: a7bf f6bf 4a52 8281 c7d0 e03e fce5 170e
00000060: 3509 2ebe 1a04 0180 4326 43a9 b925 ecbd
00000070: c974 8dbf 31f5 293f d8eb 0200 fdb3 1cb8
00000080: b16a 883f 8255 0080 adc2 c3be b818 4a3f
00000090: 656d 0200 12a9 203f 7e81 7cbf 4b31 ccbf
000000a0: f355 3dc0 8aa3 b601 b769 313d a404 e117
000000b0: 80bd 58bd 73f5 0b14 b0b6 913d 8e13 f73f
000000c0: f166 2ac0 eb87 473f 6b86 9c9e 434b d9bd
000000d0: bc6f e03d f65b aa35 324e 403e 0614 24c0
000000e0: ca83 b49a bd27 11c0 866a ddbe 9d0b 583f
000000f0: 94ff 1b3c 90e0 26b8 80df 153c c3cf c595
00000100: 5dcf 833d e0c7 ed14 abdc 82bd c43f 46be
00000110: a60b 233f d431 c53e 2079 0500 0314 b83a
00000120: 1633 a03e 3940 0300 5fc8 81be d10d 0b3f
00000130: 0019 0300 db70 603f a437 36be d0cb 0a3f
00000140: c3f0 e3bf fb4d 0000 d001 2f3f 6f12 6b97
00000150: 1a33 bcbb a082 2192 d190 a1bd 78f4 1640
00000160: 58b0 f4bf 93eb 353f 7a5b 0080 3751 57bd
00000170: 97e0 a8be 7310 fb2c 9bf9 473c d3b4 febf
00000180: a5e4 0680 d2cb 54bf 337e bbbe a9be 763e
00000190: dc3d fc3d ccb9 dd02 5731 76bd bb10 4611
000001a0: 6720 b93f 0a5f 0517 007d 233f 670f afbe
000001b0: ff4a b9bf 2ff7 95bf 9012 0400 cd14 10b9
000001c0: b475 1039 7704 0000 f82e aa3f 6d3d ebbe
000001d0: 065d 0180 aa29 c0bf e8e5 7f3f a6d4 8ebe
000001e0: c0c1 09bf a638 28b9 9c81 983e 3cd9 d516
000001f0: 0c32 2bbc c3ef 8f94 fa0a 47bc 240c 24be
00000200: d312 2e3f 49b9 d73e fc9d 0580 abc4 c23a
00000210: 33b8 b03e 9bf9 28b7 83bf d7be d732 3a3e
00000220: c4d6 0280 2bef 953f f430 003f f8f5 c73e
00000230: a54a 6f3f 346e 2483 37f1 2d3e 953f fc15
00000240: 7103 a23d 886a a994 d6a0 343f f62a d0bd
00000250: 4451 e2bb 505a 983e 7424 0780 68a4 4bba
00000260: ed85 adbd 4e1b 41b9 c7fd 5d3f 8898 5c3f
00000270: 827d 0280 484c 5fbe ad9a cf3f 8b4f ed3d
00000280: f101 273f 61c7 1c03 70fc 12c0 b504 0c18
00000290: c66f b7bd 3dfc 6914 d477 853e 47cc adbe
000002a0: ea1b 393f 7732 293e 034d 3aa2 1f13 82bc
000002b0: 3f17 04c0 4840 f9b8 a0c1 4f3f fa95 a43d
000002c0: ad78 0600 d600 89be c31a 9c3c ec76 c43d
000002d0: ac40 2b3f 95c2 0180 9bfc 4c3f 8bbd 1014
000002e0: d001 423d ced7 f095 c255 513f ac74 24bf
000002f0: 11ac b4be 36ab f2be b58c 0500 b4ce a1ba
00000300: a8dd 49bf a711 77b6 1c53 393e a88d cc3e
00000310: 8cf9 0700 307a 48bf 60aa 0640 4257 9bbe
00000320: 53e1 353f 810a 0180 cf3f ddbf 1a89 9917
00000330: 8e7c ff3b 3505 b116 8996 813f f5c4 053d
00000340: b856 68bf 524b f0bf 84cd 32b2 5fc1 80bc
00000350: f024 debf 9585 0300 0ee8 d13e 9ec8 b73f
00000360: 6f44 0300 a039 b5bf 0b77 5c3f 39e4 cabf
00000370: 1204 dd3e 3a20 ba01 4896 0ebe cf3a a798
00000380: b08b c53f 4f1f 2e17 111f cabe f730 1ac0
00000390: fcd6 423d 2659 84be 3fe9 0200 48f1 603c
000003a0: b9f0 dabe e445 0280 ec17 f93e 8877 b6bf
000003b0: 2a11 0400 d56d 61bf 7f57 a8bd bacc e53e
000003c0: 2a03 f03d b4b9 1300 ee5a d7bf 7aae 6b17
000003d0: 2185 bd3c 2050 b093 fafb 1e3f 2a29 80be
000003e0: 3588 a2bf 060f 00c0 ee51 0500 7409 6e38
000003f0: 5e58 e9bf c888 4b29 a3d3 bc3c 5ea6 c83f
0.6884194 6.18574e-40 -0.4161738 6.233584e-27 -0.2560064 -9.917155e-25 1.0217621 0.5981865
-0.8063055 -1.2066268 2.10792e-40 4.97155e-40 -0.47058472 4.615748e-36 0.2011075 2.872305
-6.789e-41 -1.0581756 0.80105853 -0.92573094 -1.9277238 -4.7872537e-38 0.43909284 1.872292e-30
-0.169957 -9.3307e-41 -4.3331885e-14 -0.115306325 -1.1051265 0.6638976 2.68276e-40 -3.7360925e-05
1.065756 -3.0674e-41 -0.38234463 0.7894397 2.22914e-40 0.6275798 -0.9863509 -1.5952543
-2.958371 6.709091e-38 0.04331371 1.4541456e-24 -0.052915096 7.066113e-27 0.07114923 1.9302843
-2.662533 0.7794177 -1.6572736e-20 -0.10610058 0.10958812 1.2692751e-06 0.18779829 -2.5637221
-7.465917e-23 -2.2680504 -0.43245333 0.8439272 0.009521384 -3.9786624e-05 0.009147525 -7.9895457e-26
0.06436036 2.4009721e-26 -0.06389745 -0.19360262 0.6368965 0.38514578 5.02629e-40 0.001404405
0.31288975 2.98545e-40 -0.25348184 0.5431796 2.84475e-40 0.87672204 -0.17794663 0.54217243
-1.780785 2.7974e-41 0.6836214 -7.595586e-25 -0.0057433965 -5.096365e-28 -0.0788895 2.3586712
-1.9116316 0.7106258 -3.2816e-41 -0.052567687 -0.32983848 7.1356753e-12 0.012205507 -1.9898933
-6.33035e-40 -0.83123505 -0.3661972 0.24096169 0.12316486 3.2579674e-37 -0.060105648 1.5624601e-28
1.4463013 4.3094574e-25 0.6386261 -0.3419144 -1.4476012 -1.171606 3.74001e-40 -0.00013740659
0.00013776758 1.602e-42 1.3295584 -0.45945302 -1.25206e-40 -1.5012715 0.99960184 -0.27896613
-0.53811264 -0.00016042832 0.29786384 3.45491e-25 -0.010448944 -1.453388e-26 -0.012148613 -0.16020256
0.67997473 0.4213355 -5.15852e-40 0.0014859637 0.34515533 -1.0071696e-05 -0.421383 0.18183456
-2.60714e-40 1.1713613 0.50074697 0.39054847 0.93473274 -4.8321775e-37 0.16986547 1.01882304e-25
0.07910813 -1.7106658e-26 0.70557916 -0.10164444 -0.0069066603 0.29756403 -6.55925e-40 -0.0007768334
-0.0847281 -0.00018416086 0.8671536 0.86170244 -2.28695e-40 -0.21806443 1.6219078 0.11587437
0.6523734 4.6073155e-37 -2.2966576 1.8096952e-24 -0.08956866 1.1813239e-26 0.26067984 -0.33944914
0.7230822 0.16523157 -2.524847e-18 -0.015878258 -2.0639188 -0.000118852186 0.81154823 0.08036418
5.94303e-40 -0.2675845 0.01905573 0.09592995 0.66895556 -1.61638e-40 0.80072945 7.307523e-27
0.04736501 -9.727571e-26 0.8177148 -0.6424053 -0.35287526 -0.4739625 5.09654e-40 -0.0012344928
-0.78853846 -3.6816143e-06 0.1809811 0.39951825 7.32369e-40 -0.78311443 2.1041489 -0.3034001
0.7104694 -9.5604e-41 -1.7285098 9.922003e-25 0.0077968305 2.8599178e-25 1.0124065 0.032658536
-0.9075732 -1.8772986 -1.04076925e-08 -0.015717207 -1.7355022 3.23427e-40 0.40997356 1.4358099
3.00056e-40 -1.4158211 0.86119145 -1.5850898 0.43167168 6.837185e-38 -0.13924515 -4.322787e-24
1.5433254 5.626195e-25 -0.39476827 -2.4092386 0.047568306 -0.25849265 2.67344e-40 0.013729401
-0.42761782 -2.08743e-40 0.48651063 -1.4255228 3.73499e-40 -0.88058215 -0.082198136 0.44882756
0.117193535 1.811492e-39 -1.6824625 7.6152816e-25 0.02313477 -4.4507656e-27 0.62103236 -0.25031406
-1.2697817 -2.000917 4.88568e-40 5.6752426e-05 -1.8230093 4.5193694e-14 0.023050135 1.5675771

dense1.bias f4 [20]
00000000: 71b2 25bf a768 1ebf 2e71 d23c 80ab a7be
00000010: 6a5f 0e3e 7d56 aabf 2820 9abe 0c95 85be
00000020: ad88 a33e e2d2 e8be c2ad 9c3e 709e 973e
00000030: 3e92 ba3e afa3 0b3e 3b0c 883e a1e7 bcbf
00000040: 9fc6 5bbe 5451 333e f9c9 273e 5e4c 6bbe
-0.64725405 -0.61878437 0.025688734 -0.32748032 0.13903585 -1.3307644 -0.30102658 -0.26090276
0.31940213 -0.4547339 0.30601317 0.29613066 0.364397 0.13636659 0.2657183 -1.4758188
-0.21462487 0.17511493 0.1638564 -0.2297835

dense2.weight f4 [4, 20]
00000000: e5d0 1e40 f109 25bf 7659 a13f aa71 22be
00000010: 8716 2a3f fa2e 123f b330 76be 479a 0d3f
00000020: 04f1 1b3f 72ad 4d3f bf08 a43f 6865 2a3e
00000030: f9d4 b83f 6f7d 69bf d33a 6f3f b7d6 4f3f
00000040: 2aaf 6e3e be85 0bc0 7583 603e 4921 35c0
00000050: ea4f 3cbf 62f2 acbf edaa bb3f e846 d3be
00000060: 7800 8e3f ef3b ca3f cc08 07bf dd1c 49bf
00000070: d48f afbf fe83 73bf 75c4 38c0 ec17 273e
00000080: b8fc 4cc0 82f0 fe3e f7c6 0dc0 05f5 c03f
00000090: e63b 3abf 6b72 c73e 9fed 743e 29a6 b43d
000000a0: bd43 53bf 97c0 38be 083c 18bf 6f08 883e
000000b0: fbe5 d83d 43de 33bf a751 9e3e 3545 bf3e
000000c0: 16e1 68bf 5f9b 723f a3cf bf3e 44b6 29c0
000000d0: 6124 3f3f f029 c83e f72d 85be d940 68be
000000e0: 554b f43e 83b1 fb3e 3e03 2ec0 138e e13e
000000f0: aa5d 99bf 1d53 b83f 855b 62c0 35bf a63e
00000100: b51d 11c0 1e4e 07c0 09bc 903e 81d7 043e
00000110: e4c7 193f 723d 38bf 04c2 f43e 57da 003f
00000120: 2922 1d3f 096a a63d 938a 483f 7def 20c0
00000130: a768 123e 2de6 723e dfb0 123f f3df 273f
2.4815 -0.64468294 1.2605426 -0.15863672 0.66440624 0.5710293 -0.24042015 0.55313534
0.60914636 0.8034278 1.2815169 0.16640246 1.4439994 -0.9120702 0.93449134 0.81187004
0.23309007 -2.180038 0.21925147 -2.8301566 -0.7355944 -1.3511469 1.4661537 -0.41265035
1.1093893 1.579954 -0.527478 -0.78559667 -1.3715768 -0.9512328 -2.8869908 0.16317719
-3.2029247 0.49792868 -2.2152689 1.5074774 -0.7274765 0.3895448 0.2391877 0.08820755
-0.82525235 -0.18042217 -0.594666 0.26568934 0.1059074 -0.7026102 0.3092167 0.37357488
-0.90968454 0.9476833 0.37463102 -2.6517496 0.74664885 0.39094496 -0.2601163 -0.22680987
0.47713724 0.49158868 -2.718948 0.44053707 -1.1981709 1.4400364 -3.536836 0.32567754
-2.2674382 -2.114143 0.2826846 0.12972833 0.60070634 -0.7196876 0.47804272 0.5033316
0.6138025 0.08125693 0.7833645 -2.5146172 0.14297734 0.23720618 0.57301134 0.65576094

dense2.bias f4 [4]
00000000: 51d0 32bf c748 9c3f 3a7c c6be bf03 4abe
-0.69849116 1.220971 -0.38766652 -0.19727992
