3 - RNA/sets/classificador-00.pth (torch, 2968 bytes, 5 tensors)

dense0.weight f4 [6, 5]
000000 87 ae 42 3e 47 1e 9e 3f 77 74 c0 bc 71 22 9e 3f
       0.1901189 1.235299 -0.023493035 1.2354261
000010 e3 39 01 c0 a4 b4 1b c0 0a 7b e0 3f 2e 01 5e 3e
       -2.0191581 -2.4329004 1.7537549 0.21680138
000020 5b 1b d8 3e a4 83 56 3e ad af 1d c0 81 5b f2 3f
       0.4220837 0.20948654 -2.4638474 1.8934175
000030 d1 60 64 3e 2a a8 a5 3e 20 08 17 3e 1f fd 16 c0
       0.22302558 0.32354861 0.14749193 -2.3591993
000040 f7 e1 f0 3f 51 ed aa 3e 02 97 e8 3e 0f b7 08 3e
       1.8818959 0.33384183 0.4542771 0.13351081
000050 26 5e 1a c0 c1 bf e8 3f 34 de 52 3e 26 72 96 3e
       -2.4119964 1.8183519 0.20592576 0.29383963
000060 ec e3 44 3e f7 be 80 bd 9b d6 84 3f 92 ad ad bd
       0.1922757 -0.06286424 1.0377992 -0.084803715
000070 a5 a7 86 3d a3 f5 25 be
       0.065749444 -0.16206984

dense0.bias f4 [6]
000000 66 10 59 bf cc fd 35 3e 7a c0 05 3e c5 2b 1d 3e
       -0.8479065 0.17772597 0.13061705 0.15348728
000010 f4 36 72 3e 56 44 80 bf
       0.23653775 -1.0020854

dense1.weight f4 [6, 6]
000000 0d d9 2b bf a9 80 86 3f d9 05 60 3f d5 66 65 3f
       -0.6712807 1.0508014 0.8750892 0.89610034
000010 39 46 51 3f e6 46 0e be 81 36 0e bf 8d 8e 25 3f
       0.81747776 -0.13894233 -0.55551916 0.6467064
000020 a6 7d 46 3f 1d b6 68 3f 2b 3d 86 3f ef 15 11 be
       0.77535474 0.9090288 1.0487417 -0.14168523
000030 51 e0 80 3f 2d db 2c bf 47 9a 4c bf 26 e2 2a bf
       1.0068456 -0.67521936 -0.7992291 -0.66751325
000040 73 5b 05 bf 44 6b b8 3e ed 1c 84 3f 86 68 1c bf
       -0.52092665 0.36019337 1.0321327 -0.6109699
000050 87 c4 31 bf 25 03 f8 be 51 96 dd be 1b 74 de 3e
       -0.694405 -0.484399 -0.43278745 0.43447956
000060 b7 2d 0a bf 88 26 90 3f e3 62 74 3f 88 ca 61 3f
       -0.53976005 1.1261759 0.9546339 0.88199663
000070 99 10 6f 3f d0 a5 9f bd 00 66 6a 3f ff c2 0a bf
       0.933847 -0.07795298 0.9156189 -0.5420379
000080 bd bf 42 bf e9 b0 08 bf e1 d1 2c bf e7 fc 37 3e
       -0.7607382 -0.53394943 -0.6750775 0.17967568

dense1.bias f4 [6]
000000 43 4e 26 bc be 40 3c 3b 33 8b c5 3e 02 d4 72 3e
       -0.010150495 0.0028725113 0.38582763 0.23713687
000010 3a d1 5d bd 6a 8a bb 3e
       -0.054154612 0.3662904

dense2.weight f4 [1, 6]
000000 d0 92 81 bf de de 69 bf 9c 44 80 3f 96 d1 69 3f
       -1.0122929 -0.91355693 1.0020938 0.9133543
000010 3e 7d 77 bf b1 29 67 3f
       -0.9667548 0.9029799
