3 - RNA/sets/classificador-6.pth (torch, 3224 bytes, 6 tensors)

dense0.weight f4 [8, 5]
0.42461032 1.4899071 -0.022161718 1.0292684 0.72309786 0.034404106 2.06006 1.1816789
-1.3084944 0.24006055 1.6960256 -1.1337702 -0.526292 -1.518989 -2.844847 -1.5913213
0.9001949 -7.4728026 -0.2570281 -0.27923608 -1.0439245 0.9713736 1.4699394 -3.3066635
0.15847252 0.5327432 0.60358214 0.941306 4.4738007 -1.7477797 0.85710746 0.52311075
-0.75857264 2.6466265 0.15036266 -0.35537994 0.29846752 4.4641504 2.6111338 0.8073785
00000000: 8666 d93e 47b5 be3f 7e8c b5bc 11bf 833f
00000010: f11c 393f 52eb 0c3d 06d8 0340 4141 973f
00000020: bf7c a7bf 6fd2 753e 5e17 d93f 621f 91bf
00000030: 13bb 06bf 3b6e c2bf f911 36c0 6bb0 cbbf
00000040: 2c73 663f 3321 efc0 3099 83be 08f8 8ebe
00000050: 519f 85bf f1ab 783f f926 bc3f 60a0 53c0
00000060: 9f46 223e dc61 083f 5c84 1a3f 6ef9 703f
00000070: 6029 8f40 3fb7 dfbf 656b 5b3f 96ea 053f
00000080: d131 42bf 5462 2940 abf8 193e 5cf4 b5be
00000090: bcd0 983e 52da 8e40 d11c 2740 5bb0 4e3f

dense0.bias f4 [8]
-1.6352886 -2.3949468 -0.0048923995 0.4380741 -0.11034253 -0.84558046 -0.6538779 -0.7567936
00000000: 2351 d1bf cf46 19c0 6c50 a0bb 404b e03e
00000010: 44fb e1bd f677 58bf 8b64 27bf 3abd 41bf

dense1.weight f4 [8, 8]
-2.2625484 -0.01214717 -0.59903085 2.8949351 0.95783883 -1.6108606 -1.5567873 0.22837149
0.51768774 0.67964184 -0.53289783 -1.259173 -1.0212207 -0.31892177 0.09777496 -3.7364795
-1.1722115 -0.24019042 0.35987738 -0.020222008 -0.3619616 0.51305366 -0.08233282 0.086781815
-2.1130114 -0.0023383035 -0.76407796 3.0506418 1.0331445 -1.7252338 -1.4302411 0.15561374
0.14256488 0.27175432 -2.021092 2.2711456 0.45504135 -1.8743243 -0.093127176 -2.7676365
0.0741143 3.023436 1.8484505 1.3601e-40 5.67134e-40 -0.28804615 -0.08336406 -0.057573378
-2.1017158 -0.010413964 -0.61219114 3.0224097 1.1265596 -1.8576843 -1.4225408 0.29058132
0.8688147 -0.22242883 0.23686787 -0.116298616 -0.08612951 -0.10176088 0.31511974 -0.17089584
00000000: 98cd 10c0 ec04 47bc 165a 19bf 9e46 3940
00000010: ed34 753f ae30 cebf ce44 c7bf 37da 693e
00000020: 2f87 043f 02fd 2d3f fe6b 08bf 952c a1bf
00000030: 5cb7 82bf b749 a3be 3d3e c83d 7b22 6fc0
00000040: 070b 96bf 7af4 75be d941 b83e a0a8 a5bc
00000050: 0853 b9be 7c57 033f 1c9e a8bd aaba b13d
00000060: 943b 07c0 393e 19bb 9d9a 43bf b73d 4340
00000070: 143e 843f 76d4 dcbf 2412 b7bf 3559 1f3e
00000080: 87fc 113e 6223 8b3e 9259 01c0 735a 1140
00000090: 2efb e83e dce9 efbf 76b9 bebd f520 31c0
000000a0: 3dc9 973d fa7f 4140 079a ec3f 247b 0100
000000b0: f02c 0600 c97a 93be c7ba aabd 10d2 6bbd
000000c0: 8382 06c0 559f 2abc 8fb8 1cbf 296f 4140
000000d0: 1b33 903f 99c8 edbf d115 b6bf 13c7 943e
000000e0: a46a 5e3f 62c4 63be 7e8d 723e f82d eebd
000000f0: ab64 b0bd 0268 d0bd 6057 a13e 52ff 2ebe

dense1.bias f4 [8]
0.11154503 0.32223052 -0.04095601 0.19214693 0.4395182 -1.7432718 0.12955077 -0.073114134
00000000: b871 e43d 66fb a43e 7dc1 27bd 2ac2 443e
00000010: 8808 e13e 8823 dfbf f5a8 043e ddbc 95bd

dense2.weight f4 [3, 8]
2.8288896 -0.06892108 -0.39336157 2.9366217 1.6605308 1.4419103 2.9470756 -0.76279026
-1.807388 -1.3469384 0.9838356 -1.7858922 -2.7289453 -4.160211 -1.748272 0.06186632
-0.92228806 1.1938075 -0.47933584 -1.1852888 1.0833803 2.7339947 -1.1858782 0.555602
00000000: 870c 3540 7f26 8dbd b066 c9be 9cf1 3b40
00000010: 468c d43f 8490 b83f e39c 3c40 3946 43bf
00000020: 7d58 e7bf 7a68 acbf a6dc 7b3f 1e98 e4bf
00000030: 0aa7 2ec0 7320 85c0 60c7 dfbf 8a67 7d3d
00000040: 121b 6cbf afce 983f 826b f5be 8bb7 97bf
00000050: 35ac 8a3f c5f9 2e40 dbca 97bf ef3b 0e3f

dense2.bias f4 [3]
-0.66399026 1.2791448 -0.43931782
00000000: 44fb 29bf 04bb a33f 44ee e0be
